genki_signals/models/swipe_model/model.onnx (onnx, 757279 bytes, 16 tensors)

backbone.conv0.weight f4 [64, 6, 5]
00000000: 8225 ab3e 4e61 fe3d 79d2 fe3e fcc5 133e
00000010: a262 cdbe 8c32 f2bd 4c51 2f3e a09f ae3c
00000020: 5d15 d53d a5aa 13be c9f0 0dbf 56cc a63d
00000030: 4217 00bd 7322 6b3d d58c 8ebe a452 0b3f
00000040: 2df0 c13d a137 4bbe 9851 143f 5d78 e93e
00000050: 9a6b 1f3e ba33 bf3e 7bfd a03d 26fa a4be
00000060: eac3 03bf 65f8 6cbe a5a1 07be d3ec c3be
00000070: 7ad1 acbe 6a52 1cbe 30c9 ebbd 344e 8cbc
00000080: aafb fabe 0bfb 0abf 78d8 21be 5b1c aabe
00000090: fc21 d83d 248c 68be 7ffb e43e 0ba7 eabe
000000a0: 0539 09bf 01c8 a2be c783 ebbe b0ad 02bf
000000b0: d3d0 58bf fd8c 27bd d105 9b3d 176b 913d
000000c0: 262b 7ebd 9374 5c3e b80f 093e bc7b 01be
000000d0: 3500 b73e 347f 9fbe 3c62 a13e d644 f0bd
000000e0: f686 46bc 3aa0 babe 266c d73e 7c8b 59bd
000000f0: d884 ce3e 7ba4 0e3f abae 733e 808e 243f
00000100: b025 ea3e 1491 05be 78e3 bcbe 2180 9bbe
00000110: 9bd7 ecbd 7094 2bbe b464 ff3e df6b 643f
00000120: 02cc 3f3f 75ce f73e df4a 0a3f e5ac 243d
00000130: 832a 093f cce7 f43e 0090 373d 8e82 0b3f
00000140: 3f2d ca3e 3785 13be b432 b1be d8cd 9a3e
00000150: 4bce 553e fadc 5d3e 5a44 29bd 4e01 303d
00000160: 7929 9fbc c8dd 08bd 787b d03e 8d32 3b3e
00000170: fd27 a6be 8971 a3bc b121 2e3e 1176 73bd
00000180: 5dd2 7cbe 6513 d7bc ce5b 3d3b b80e dc3e
00000190: 0927 913d ee65 e33d b931 143e 3d61 a23e
000001a0: e39e 69be bbd2 b23c 0a4c 873e 2791 19be
000001b0: 4aa2 e63e 9b29 89be b847 54bd fed8 b5be
000001c0: 4fde f7be df6d 8dbe e87d e13e 8b32 36bc
000001d0: 8b3d ffbe 921a b43e 5949 1b3e abd5 5ebc
000001e0: 62df 5bbe 3df5 133f ec99 ea3d e46e 65ba
000001f0: fa72 043f b85b 22be cd8e 32bf 935b d8be
00000200: d7d4 2abf 8778 0abf 496f 403d b177 d4be
00000210: f307 1fbe ed99 0dbe fbbd 4fbe c0cf 483b
00000220: c6a5 803e ff22 a63e fbb3 56be 14fc 733e
00000230: 128a cc3e 6586 10be 2428 99be 87f5 b23e
00000240: 1630 f03d 2d79 fc3e 5871 333e eabb 7abe
00000250: 06ea a9be a413 963e d020 33be 8b4b 9dbe
00000260: 73d6 c53d f016 163e d3ed 093d 4f9a 2b3f
00000270: 7831 34bf 51fa 4e3e 76cd bc3d 1ed8 ffbd
00000280: d192 17bf 0a16 863e 20fd 743e 3795 d73d
00000290: 08b7 213e a098 d63d 21d6 eb3e e240 1c3d
000002a0: 4d6d 31bd 68b9 6ebe 9395 1cbf 935e d03e
000002b0: 3379 91bd 7c4d 82be 47a1 223e de7e 523e
000002c0: 38fd 7cbe 36cf 99be 075b 48be 726f 4a3e
000002d0: 2a4b 853e 0a77 4b3d 56ec 423c 2a73 bfbc
000002e0: 5baf 0c3f 360a 04be ed84 48bd ddb1 f8bd
000002f0: 118a 213e 7cdc 2e3e 5ebb 5c3e 540c 8cbc
00000300: 0e1b 003f bffa 4b3d b384 653e 6173 0cbd
00000310: 5581 d73e 2ab8 cf3e 0fcb b5be ad4f ec3e
00000320: ab57 3abf 647a d1bd f9e5 60bf 195f 82bf
00000330: ff43 54bf e58f a8be 131d 88bd a8c4 023d
00000340: 920a 023e c301 fbbe 1b97 c03c b78e c23e
00000350: 2220 43be 9dab 0b3f 4904 913e 6db8 523e
00000360: 0811 8c3e 14b4 ff3e 8933 1fbe 748c 9a3e
00000370: 34de 273f 996f eb3e b130 6d3d 6f9b 063f
00000380: ad11 76be b7dd b8bd 5fb0 c93e b0d9 8c3e
00000390: 9328 adbe 9998 7cbe 8852 a73d 1e1d a7bd
000003a0: 81df 8b3e f9d9 9c3d 2caf d63d b700 bb3e
000003b0: fc2e 66be 0044 c2be c93a 78be 754a 75bd
000003c0: 137e 29bf afe8 3fbf e99f 3fbf e04c 153c
000003d0: 5603 9dbe e57c bd3e 2da1 343e 6d8c 4b3a
000003e0: 8028 c6be ec97 64be 22a2 61be b71c 61bc
000003f0: 59a2 2f3e 8bd4 d23e 92c7 803e 3e71 aa3e
0.33427054 0.12420903 0.49769953 0.14430994 -0.40114313 -0.11826047 0.17120856 0.02131635
0.10404465 -0.14420564 -0.55445534 0.08144443 -0.03127218 0.0574059 -0.2784182 0.54422975
0.09469638 -0.1984544 0.57937 0.45599642 0.1556839 0.37344152 0.078608476 -0.32222098
-0.51470816 -0.2314163 -0.13245256 -0.3826662 -0.33753568 -0.15265813 -0.11512983 -0.017127134
-0.4902013 -0.5428931 -0.15805233 -0.33224759 0.10553357 -0.2270971 0.44723126 -0.4583057
-0.5360263 -0.31793216 -0.45998976 -0.51046276 -0.8469364 -0.04090594 0.07569469 0.07100504
-0.06205287 0.21528845 0.13384902 -0.12644857 0.35742345 -0.31151736 0.3152026 -0.117318794
-0.012117138 -0.36450368 0.42074698 -0.05311154 0.40335727 0.5571973 0.237971 0.6427994
0.45731878 -0.13043624 -0.36892295 -0.30371192 -0.11564561 -0.16755843 0.49881518 0.892271
0.74920666 0.48399702 0.54020494 0.040203948 0.5358049 0.47833097 0.044815063 0.54496086
0.39487645 -0.14406286 -0.34608996 0.3023517 0.20879476 0.21666327 -0.04132495 0.042969994
-0.019428955 -0.033414632 0.407192 0.18281002 -0.32452384 -0.019951599 0.1700504 -0.05943877
-0.24689622 -0.026254365 0.0028893831 0.4297998 0.070875235 0.11103426 0.14472093 0.31714812
-0.22814517 0.021829 0.264252 -0.14996777 0.45045692 -0.26789555 -0.05182621 -0.35517114
-0.48411795 -0.27622887 0.4404137 -0.011120449 -0.4985164 0.35176522 0.15164699 -0.013600747
-0.21471933 0.5779608 0.114551395 -0.0008752181 0.5173794 -0.158553 -0.69749147 -0.42257366
-0.6673102 -0.5409016 0.04698113 -0.41497567 -0.15530376 -0.1382825 -0.20287316 0.0030641407
0.25126475 0.32448575 -0.20967095 0.23826629 0.3994909 -0.14113767 -0.29913437 0.34952947
0.11727922 0.493112 0.17523706 -0.24485746 -0.33186358 0.2931186 -0.17492986 -0.30721697
0.096600436 0.14657187 0.033674072 0.6703233 -0.70387983 0.20212676 0.09218876 -0.12492393
-0.592084 0.2618869 0.23924685 0.10526507 0.15792477 0.1047833 0.46061805 0.038147815
-0.043317128 -0.23312914 -0.6116573 0.40697154 -0.07103195 -0.2544974 0.15881835 0.20556208
-0.2470597 -0.30040902 -0.19565974 0.19769076 0.26033908 0.04967407 0.011897167 -0.023370344
0.5495507 -0.1289452 -0.048954893 -0.121433 0.15775324 0.17076296 0.2155585 -0.017095722
0.5004128 0.049799677 0.22413902 -0.03428972 0.4209086 0.40570194 -0.35506484 0.46154538
-0.7279002 -0.10228422 -0.8785091 -1.0185272 -0.82916254 -0.32922283 -0.066461705 0.031925827
0.12699345 -0.49024782 0.023509553 0.37999508 -0.19055226 0.54558736 0.28323582 0.20578165
0.27356744 0.49942076 -0.15547003 0.30185282 0.6557343 0.4598358 0.057907764 0.5258092
-0.2403018 -0.09026664 0.39392373 0.27509832 -0.33820018 -0.24667586 0.081700385 -0.081598505
0.27318957 0.076587625 0.1048263 0.36523983 -0.2247886 -0.37942505 -0.24241175 -0.05988546
-0.66208 -0.7496442 -0.7485338 0.009112567 -0.30666608 0.3700935 0.17639609 0.00077647605
-0.38702774 -0.22323579 -0.22034505 -0.013739756 0.17151774 0.41177782 0.2515226 0.33289522

backbone.conv0.bias f4 [64]
00000000: a9cc a3bc 48bd bfbb 4108 c6ba fc8a 04be
00000010: a33b c9bc 227b 86bd b83d f0bc 64ac 36bd
00000020: 783f d5bd 611d 0dbd fcc6 febc 0e43 e3bd
00000030: 30d8 1cbd 9b8e ffbd fa6e 3ebc a4e7 27bd
00000040: 448e f9bb 4a56 183d 5cd2 45be 5133 dfbc
00000050: 788a 3dbe 3c99 8fbd 198c bcbb 5c8e 553c
00000060: 7ed5 0bbe 22b9 14bd e2a2 1fbe 2d7b f7bc
00000070: 50df 1dbe 6f69 66be b518 573d 18a0 44be
00000080: 9cf0 c1bc 83a9 6cbe 9c95 38be eeb4 d3bb
00000090: 2299 f9bd 3b77 f5bc 8160 7fbd a110 c3bd
000000a0: fa78 d9bd 09d5 2dbe 8273 fe3c e6c3 3e3d
000000b0: bb5b 23be 7cdc be3c 87a1 21be 04cf 24bd
000000c0: 01bd 63bd ee11 acbb b957 76be 4d9a 50bd
000000d0: afc0 35be 5a96 60bd f817 b5bc 68ed 6cbd
000000e0: 9669 09be d855 54be 8ca0 00be 723f b5bc
000000f0: 13ec d1bc 7477 92bd f787 52be 2e3e a2bd
-0.01999505 -0.0058514215 -0.0015108661 -0.12943643 -0.02456457 -0.065664545 -0.029326305 -0.044598
-0.10412496 -0.034451846 -0.031100743 -0.11096774 -0.03829211 -0.12478372 -0.011623139 -0.040992394
-0.0076158363 0.037191667 -0.19318527 -0.02724615 -0.18509853 -0.07011649 -0.0057540056 0.013034429
-0.1365566 -0.03630937 -0.15589479 -0.030210102 -0.15417218 -0.22501157 0.052513797 -0.19201696
-0.023674302 -0.23111539 -0.18025821 -0.0064607775 -0.12187411 -0.02996408 -0.062347893 -0.09524656
-0.106187776 -0.16975798 0.031060938 0.046573542 -0.15952961 0.023298495 -0.15784274 -0.040236488
-0.05560017 -0.005251161 -0.24056901 -0.050928403 -0.17749284 -0.054830886 -0.022106156 -0.057843596
-0.13419184 -0.20735872 -0.12561244 -0.02212498 -0.025625264 -0.0715169 -0.20559679 -0.07922016

backbone.conv1.weight f4 [64, 64, 5]
00000000: 4330 2cbd 38ef 0abe a045 44be 7530 55bd
00000010: 47b9 123e d4d4 d8bd 2afc 1f3c a5c7 eebd
00000020: 44d1 41be 7374 22be 6f20 ed3b 7ce6 fe3b
00000030: c891 743e 702d d53d 51f5 d83d 62af 3ebe
00000040: 3d8a 6dbd f4b9 5dbe 68ec 39be e360 163e
00000050: 0e0c 71bd b581 fb3d a9ec 8c3d 6887 0cbe
00000060: ece9 713c 53d5 e1bc e614 36be 824c 023e
00000070: 2f28 523d c118 26be 62a7 513e 7427 843d
00000080: 353d ae3c 80a6 8c3e 0fcd 5a3e 9ea8 27be
00000090: 7234 8dbd bae2 05be 073b 583b 9244 d13d
000000a0: cd36 1fbe 889b 2abe c2bb 63be ae9a 64be
000000b0: b565 03bf 3140 70be 0144 873c eec7 e6bd
000000c0: ae87 31be 26b5 d4bd 748b b2be 9d96 50be
000000d0: ed0e 76be 1c1d 4dbe 1dcd 3cbe 05a5 38be
000000e0: 5120 833e 173b 5bbd 4e23 b43d a5fa 8e3b
000000f0: fec8 6dbe 9b3f e7bd 3c61 403e e9d8 eabd
00000100: 3549 4cbe b028 03be 7bc5 3ebc 6b21 f23d
00000110: 4d5a 65bd 831c 9cbd 040b b2bd 0a4c f9bd
00000120: 896e 2cbe 0441 d0bd 283d 78be 66a9 e3bd
00000130: f40d 43be 855c a9be 83f9 153d eafc 06bd
00000140: e0f6 aabe 9320 45be a5c3 203d 60f5 32be
00000150: 01aa 0fbe 9041 b7bd 3f7e d2bd bbc7 c1bd
00000160: 6a5d c6bd dbce edbd c967 5abe 6d71 cfbd
00000170: 5ab9 8ebe 052e 3dbe 571d 96bd 81cf 28be
00000180: 8149 54be 67c6 efbd 4c2d 21be 1f91 95be
00000190: 4a6e d73d bd32 d4bd 393c fb3d 8f05 c03e
000001a0: 9867 9f3e 9540 ad3d 7333 393e 01ca f23d
000001b0: e784 2fbe c24d 43be 3945 abbc f3f2 08be
000001c0: 0b5e b63c 0b2a acbd 33f3 36be 6d41 0ebd
000001d0: 8067 3c3d 7437 20be 629e 19be 63e8 5abd
000001e0: 2cca 2abe cddc c4bd 334a bb3d 6ab2 fbbc
000001f0: bd51 0d3e 583f 3bbe e96f 72bd 41e9 223d
00000200: 354a 25bb 10f0 b7bd 1f64 b6be 65d8 b8be
00000210: 269f 8cbe f63d 9abe f2cf 023e 47f6 6bbe
00000220: 7c4b 12be e152 89be 8376 8fbe 075e 1ebe
00000230: cb7d b7be e22a 03be bb03 0fbe 5190 a9be
00000240: b69b a1be 2562 16be 313f 03bd c2be 9cbd
00000250: 31de 9c3d 952b 3fbe 85bd dabd 3969 31be
00000260: e253 563d d31b 323e 25ea f53d dd8f 0b3c
00000270: 6e27 febd a3da 9cbd 554c 623c 5604 2abd
00000280: 41b7 a0bd 5bcd 0ebe ccb9 743d 8540 303d
00000290: e5b0 a0bd e642 bcbd 6009 13be 5615 ab3b
000002a0: 5e94 63be 5d38 043d 343b b0bd 2c60 e0bd
000002b0: ef49 81bc 669a dbbd c96e 9e3c ee4c e0bd
000002c0: b73f 04be 30a3 fe3b b25a f4bd 4160 dcbc
000002d0: a9b5 fdbc fb16 a3bd f437 25be 2733 11bb
000002e0: 47db 233e 2d4e 613d f979 ee3d 2085 133c
000002f0: 9c44 183e 454c 3f3e ec71 bd3d 9ab7 babd
00000300: 04a6 f8bd 57e3 ef3d bba1 a2bd 02b0 a33d
00000310: 5fb1 eebd 6237 eebd 0bae dc3d f327 8fbd
00000320: 1e52 b83b 8e23 17bc 6cfe 033e a661 373d
00000330: 2570 4e3d d620 2abe c147 113e 9ff6 bd3d
00000340: 31b5 a33d b21b 733e 068a 62be 5abc 3abe
00000350: 4987 ac3d 132f 61bd bdca 6e3d 0552 12be
00000360: d6cd f13c 9875 d43c dcbd bc3d deac 82bd
00000370: 8d3e 883e 4589 063e 1c5a 1b3e c88b 283d
00000380: db1c 863c 603a 1fbe aa47 b93d f644 7dbd
00000390: a37a 0a3c 1b76 273e 2c16 14be f521 fdbd
000003a0: c8ed c8bd a2e3 a13d 9db5 a83e 25bd 7abd
000003b0: c449 46bd db96 4cbe 6b3f 213e 915a 353e
000003c0: 723d 983d e79c 33bd 8141 093e f31b ee3d
000003d0: 1550 bfbc 169c 98be 1344 a3be d636 51be
000003e0: 969b 9bbb 8d65 c03a d917 113c 1fef 81bd
000003f0: c142 33be 1db9 26bc 89f4 26be 3db0 1fbc
-0.042038213 -0.13567817 -0.19167185 -0.052048165 0.1432849 -0.10587469 0.00976471 -0.11659173
-0.18927485 -0.15864734 0.0072365324 0.0077789407 0.23883736 0.10409057 0.105936654 -0.1862159
-0.057993162 -0.21652967 -0.18156588 0.14685397 -0.058849387 0.12280599 0.06881077 -0.13723528
0.014765244 -0.027567541 -0.1778141 0.12724498 0.051307853 -0.1622038 0.20474008 0.064528376
0.02126942 0.2747078 0.21367286 -0.16372916 -0.06894769 -0.1307477 0.0032994167 0.10218157
-0.15548249 -0.16660893 -0.22239593 -0.2232463 -0.5132707 -0.23461987 0.016511919 -0.11268602
-0.17336914 -0.10386114 -0.3487202 -0.20369954 -0.24029131 -0.20030636 -0.1843762 -0.180317
0.25610593 -0.05352315 0.08795796 0.0043633753 -0.23221204 -0.11291429 0.18787092 -0.114671536
-0.19949801 -0.1280849 -0.011643763 0.1182278 -0.05599432 -0.07622626 -0.08693507 -0.121727064
-0.16839041 -0.10168651 -0.2424208 -0.111162946 -0.19048291 -0.330784 0.036614906 -0.03295604
-0.33391476 -0.19250707 0.03924908 -0.17476416 -0.14029695 -0.08948052 -0.10277986 -0.09461924
-0.09685786 -0.1161172 -0.21328653 -0.10129056 -0.27875787 -0.18474586 -0.07329815 -0.16485406
-0.20731165 -0.11707764 -0.15739936 -0.2921228 0.10519083 -0.1036124 0.12267346 0.3750424
0.31133723 0.08459584 0.18086033 0.118549354 -0.17140542 -0.19072631 -0.020907031 -0.13373928
0.02226164 -0.084064566 -0.1786621 -0.034730364 0.045997143 -0.15646154 -0.15001824 -0.053444277
-0.16678685 -0.09612427 0.09145012 -0.030724723 0.13800712 -0.18285882 -0.059188757 0.03977323
-0.0025221233 -0.08981335 -0.3562326 -0.36102596 -0.2746517 -0.30125397 0.12774637 -0.23043166
-0.14286608 -0.26821044 -0.28020105 -0.15465556 -0.3583816 -0.12809327 -0.13966267 -0.33117917
-0.3156411 -0.14685877 -0.032042686 -0.07653572 0.07659567 -0.18668969 -0.10680679 -0.17325296
0.05232609 0.17393427 0.1200755 0.008518186 -0.12409864 -0.07658889 0.013812144 -0.04150804
-0.07847453 -0.13945524 0.059747502 0.04303028 -0.0784624 -0.09192447 -0.14359045 0.0052210493
-0.22224566 0.032280315 -0.08605042 -0.10955843 -0.015782325 -0.107228085 0.019339936 -0.10952173
-0.1291493 0.0077709183 -0.11931361 -0.026901366 -0.030970411 -0.079633676 -0.16134626 -0.0022155733
0.16001616 0.055006195 0.11644358 0.009003907 0.14869922 0.18681438 0.092502445 -0.091170505
-0.1214104 0.117132835 -0.07941004 0.07992555 -0.116549246 -0.11631657 0.107753836 -0.069900416
0.0056250235 -0.0092247855 0.12890023 0.04477086 0.050399918 -0.16614088 0.14187528 0.09275555
0.07993544 0.23741034 -0.22122964 -0.18235913 0.08424241 -0.054976534 0.058298815 -0.142891
0.029517096 0.02593498 0.092159 -0.06380628 0.26610222 0.13138302 0.15171093 0.04114893
0.016371181 -0.15549612 0.09046872 -0.061833344 0.00845209 0.16353647 -0.14461583 -0.123599924
-0.09810978 0.07904746 0.3295106 -0.06121554 -0.048410192 -0.19979422 0.15746848 0.1771033
0.07433595 -0.043850806 0.13403894 0.11626425 -0.023353616 -0.29806584 -0.31887874 -0.20431075
-0.004748772 0.0014678702 0.008855783 -0.06344437 -0.17505933 -0.01017597 -0.1630422 -0.009746608

backbone.conv1.bias f4 [64]
00000000: 1a53 2abe fc2e f0bd 7c81 c1bc fa23 25bd
00000010: a232 08be 2b3b b0bd 255a ff3d 89d8 c6bd
00000020: 1a90 9fbd 4fe9 aabd f797 e2bd e1a2 753d
00000030: 34d0 c03d 4461 19be e0bc e4bd fe94 0dbe
00000040: 3e43 033e f775 5e3d 2084 743d 0d58 42bd
00000050: d04f cfbd fab5 4fbe d769 363d d868 c0bc
00000060: 8565 b6bd 11b5 bb3b 9641 20be ef88 ac3d
00000070: 2bed b3bd 19ed 45be 2373 5c3e a5e5 8dbd
00000080: 2a40 313c c750 e63d 114c 833d 9462 ccbd
00000090: bc00 51bc 2985 edbd aeef c53c 100e 683d
000000a0: 86fb b43b 3308 a63c d2cb 54bd e126 803d
000000b0: 5cd7 5b3e 13d2 3a3d 7913 f73d 6286 443e
000000c0: efe1 b23d a3a2 803d 3af8 113d d972 9abd
000000d0: f186 ed3d 3ad6 b1bc d622 77bd 03ad 223e
000000e0: 48e7 03bc 9df3 20bd 807c c53d 9bf3 323e
000000f0: 887b 113e 05d2 2f3e 2c21 933c e1df c63c
-0.16633263 -0.117277116 -0.023621313 -0.040317513 -0.13300565 -0.086050354 0.124683656 -0.097092696
-0.07791157 -0.08345281 -0.11064141 0.059969787 0.094147116 -0.1497851 -0.111688375 -0.13826367
0.1281862 0.05431172 0.059696317 -0.047447253 -0.10122645 -0.20284262 0.04453453 -0.023487493
-0.08906082 0.005728372 -0.15650019 0.084245555 -0.087854706 -0.19328727 0.21528296 -0.06928567
0.010818521 0.11245876 0.06410993 -0.0997974 -0.012756523 -0.11597664 0.02416214 0.056654036
0.005523148 0.020267582 -0.05195219 0.062574156 0.21468872 0.0456105 0.12064261 0.19191888
0.087345 0.062810205 0.035637118 -0.07541437 0.11598004 -0.021708596 -0.060335957 0.15886311
-0.008050747 -0.039294828 0.09642887 0.1747574 0.1420728 0.1716996 0.017960154 0.024276676

backbone.conv2.weight f4 [64, 64, 5]
00000000: 6716 a73c 7e91 36be 2a53 d1bc 2e59 333e
00000010: 8acb fc3d 4b7c 81be ca5a 06bd 0e21 3f3e
00000020: 5d17 27be 10ba 8fbd 74bc 943d 5f2e a53d
00000030: 66dc dd3d a913 2dbe ed9c 0ebe 44fa f0bd
00000040: 9f73 193d f8c9 59bd aff0 a33d fe23 36be
00000050: ec36 99bd c6c2 8dbe 8555 f7bc b965 4abd
00000060: 6f3f c03d d1fa 1abe d0b5 0ebe 59c7 19be
00000070: 2ccc dfbd fbd1 d9bd 7800 66be b8e8 5fbe
00000080: cedc 97be f103 be3d 4614 aabe bdab 8bbd
00000090: 0efa 4ebe d625 51bd d2bf fd3d 8051 50be
000000a0: cdbd 563e 9b32 ac3d e692 ce3d b7de 38be
000000b0: 1aeb 3bbe c6be 8f3d ba89 0ebd a8ba 033e
000000c0: 20c2 28bd 8a7a c3bd f743 90be e07b 79bd
000000d0: 9a79 203e 9056 a5bd 2f07 8c3e 8834 e73c
000000e0: 9dcc 653a 5c12 a2bd bd53 7a3e 8762 1c3d
000000f0: bfdc bdbc dd9d 5c3e 3dd8 2fbe da9e 26be
00000100: 7251 2fbe 6166 80be 009f a9be d30c 55be
00000110: 2c26 cd3b fb67 3cbc 6aea 183d 051b a3bd
00000120: e828 0d3e 89f1 66bd 8e25 ab3d 769d 58be
00000130: a761 93be 90cc 1fbe 7c09 843e 7659 4d3d
00000140: 07dd a63d 797b cd3c 94a9 ad3d 1392 b13d
00000150: b711 193d 8640 8a3c 794e 7dbe 8803 f6bd
00000160: b3fe c8bd cd1b 9fbd 196d 8cbe 8bee 80be
00000170: 25f2 7c3d 2800 c9bb 85ce bb3b 629a 98bc
00000180: cc10 7e3c 63a3 883d c1bb 673e e1e1 863e
00000190: f293 b2bc 2b05 9abd 8348 c4bd 386a c3bc
000001a0: 7ad5 98be cad3 073d f3bc 61bd de55 8f3d
000001b0: 101f dbbd c771 1b3d 33d5 12bd e3bf f33c
000001c0: 137c f8bd fe7c 163e e235 adbc 1863 90bd
000001d0: 83fa 433d d8f6 d63d b31c ab3d 3182 593e
000001e0: 9d61 503d 25c7 55be a363 01be 773c 623e
000001f0: fb4c cf3b 80f1 883d 2a07 9c3e 759c ae3d
00000200: 813c f3bd 54be 5a3c 1671 8bbd 0121 53be
00000210: c4c2 3b3e c124 00bc 7f4c c43c 6d63 0dbe
00000220: 240d ffbd fe2d 11bc 8e16 07be e577 27bd
00000230: 61ad 6cbd 29c0 173e c8d0 443e 3e99 95bc
00000240: 2c5f c33d 1757 7ebe c4bb 463e 4dbd 1ebd
00000250: a805 67bd 445d b0be 70f7 81bc aab0 f03c
00000260: bcdf dc3c 253b e63e 470c 8cbd 4888 dfbd
00000270: f06a 38be e2a7 c73b 1dd7 a7be 3cc7 833d
00000280: 1e75 50be e4ae c03d 9ea1 9e3d 5ca4 11be
00000290: 99a6 afbd cdd4 efbd 799d 88be 95d5 3ebe
000002a0: 5380 9cbe f002 cbbe ae91 c9bd 4c81 843e
000002b0: f979 163e 651d bebd 374f 1f3c 0d66 86bd
000002c0: d9af 8d3d bbfa 313e 21a5 623e f065 873e
000002d0: 13c7 83bd f5cd 4bbd e154 1fbd 0395 26bd
000002e0: 28ba 03bd 7153 f23d 0aaf 12be 33d6 83bd
000002f0: 5118 d2bd 03db c13c 3eb0 64be 5355 01be
00000300: 6f83 193d 1f73 213e 046e 443e 006b 41be
00000310: 9ec9 2cbe 997b 50be 9eda 7abe 1037 3bbe
00000320: f5e8 cb3d 6282 cbbe 8905 8cbe ce52 d7be
00000330: 1389 cdbc 9eaa 82be 104d 87bb cdcb 843d
00000340: e8b7 e5bd e00d 4dbd 36d3 5fbd eec0 70bd
00000350: 4f4f bdbd 1b88 a83d 4daf 853d 460d 90bd
00000360: 7032 77be eb5f be3e 3cce f33d 1991 093e
00000370: e228 88bd 27b1 4dbe f606 953d fb20 223d
00000380: 6d3b a4bc 39f0 18be db13 1f3e 7670 4e3e
00000390: c313 b43e 39ce acbd b92f 67bc 96a5 85bc
000003a0: 4cc9 fabd cc91 3bbe 6c33 21be f0b1 17bd
000003b0: b34f 5c3e 3595 8c3e da8c 623e 6d20 1f3e
000003c0: 5ae2 84be ef1c 0d3d 2405 b0bd c247 383d
000003d0: 68a1 8ebe 5d26 1d3c 9199 04be 7ae3 abbe
000003e0: eb85 adbe c368 bfbe 9e39 1bbe 8621 eabd
000003f0: 5899 9e3d 42a1 873e 2ebe 653c c79d 153d
0.020396424 -0.17828938 -0.025552351 0.17514488 0.123435095 -0.2529014 -0.032801427 0.18664953
-0.16317506 -0.070179105 0.07262507 0.08065485 0.10833053 -0.16902031 -0.1392705 -0.117664844
0.03746378 -0.053171128 0.08004891 -0.17787167 -0.07481179 -0.27687663 -0.030192146 -0.049413417
0.09387099 -0.15134741 -0.13936543 -0.15017451 -0.109276146 -0.10635754 -0.22461116 -0.21866119
-0.29660648 0.092780955 -0.33218592 -0.06819866 -0.20212576 -0.051061474 0.123901024 -0.2034359
0.20970841 0.0840809 0.100866124 -0.18053709 -0.18351403 0.07018809 -0.034799315 0.12864172
-0.041200757 -0.09544857 -0.28176853 -0.060909152 0.15671387 -0.08073151 0.2734923 0.028223291
0.00087661465 -0.07913658 0.24446006 0.0381799 -0.023176549 0.21544595 -0.17172332 -0.16271535
-0.17120913 -0.2507811 -0.3312912 -0.20805673 0.006260654 -0.0114994 0.03733293 -0.07964138
0.13785136 -0.05638269 0.08356772 -0.21153817 -0.2878544 -0.15605378 0.25788486 0.050134145
0.08147626 0.02508329 0.0847961 0.086704396 0.03737041 0.01687647 -0.24736966 -0.12012392
-0.09814205 -0.077689745 -0.27426985 -0.25181994 0.061754365 -0.006134052 0.005731406 -0.018628303
0.015506934 0.066717885 0.22630216 0.26344207 -0.021799061 -0.07520517 -0.09584143 -0.02385436
-0.2985037 0.033160962 -0.055111837 0.069988 -0.10699284 0.037950303 -0.035847854 0.029754585
-0.1213304 0.14696118 -0.021143857 -0.07050151 0.04784633 0.104963005 0.08355083 0.2124107
0.05087434 -0.20876749 -0.12635665 0.22093378 0.0063263155 0.066866875 0.30474216 0.085259356
-0.118767746 0.013351042 -0.06808679 -0.20618059 0.18336016 -0.007821263 0.023962257 -0.13807459
-0.12453678 -0.008861063 -0.13192198 -0.040885825 -0.057782535 0.14819397 0.19220269 -0.018261548
0.09539637 -0.2483791 0.19407564 -0.03875475 -0.05640188 -0.34446156 -0.015865058 0.029381115
0.026962154 0.44967 -0.06838279 -0.109146655 -0.18009543 0.0060930112 -0.32781306 0.06434485
-0.20357177 0.09408358 0.0774567 -0.14222854 -0.08576698 -0.117105104 -0.26682642 -0.18636163
-0.30566654 -0.3965068 -0.09842239 0.25879896 0.14694966 -0.0928295 0.009723476 -0.065624334
0.06918306 0.17380802 0.22133304 0.2644496 -0.06434455 -0.049756963 -0.038899306 -0.040669452
-0.032159954 0.118323214 -0.14324585 -0.0643734 -0.10258544 0.023664003 -0.22332856 -0.12630205
0.03747886 0.15766571 0.19182593 -0.18888474 -0.16873786 -0.20359649 -0.24497458 -0.18282723
0.099565424 -0.39747912 -0.27347973 -0.42055362 -0.025089776 -0.25520796 -0.0041290596 0.064841844
-0.11216718 -0.05006206 -0.054644786 -0.058777742 -0.092436425 0.08229085 0.065275766 -0.07033782
-0.24140334 0.37182555 0.119045705 0.13434257 -0.06648423 -0.2008711 0.07276718 0.039582234
-0.020047868 -0.14935388 0.15534918 0.20160088 0.35171327 -0.08437771 -0.014110499 -0.01631431
-0.122454256 -0.18317336 -0.15742272 -0.03703493 0.21514778 0.27457586 0.22124043 0.15539713
-0.25953943 0.03445142 -0.085947305 0.04499031 -0.27857518 0.009591666 -0.12949206 -0.33571988
-0.33891234 -0.37384614 -0.15158698 -0.11432175 0.07744092 0.26490217 0.014022393 0.03652742

backbone.conv2.bias f4 [64]
00000000: d90f 8fbc 3c45 9e3d 7e67 4a3e 9120 9e3d
00000010: b07c 96bc f56a 5fbd eac0 20bb f4aa a1bd
00000020: dc4d a5bd 8b2e 9c39 c374 993d c537 38be
00000030: 4ff0 113e 8fa1 94bd 433d 193e 333b 0abe
00000040: 21eb fbba e9d0 db3c afb9 b63d 7854 3dbe
00000050: 1322 7d3d 6e9b 853d c624 123e c2d2 bfbd
00000060: be91 1e3d c201 20bd ae2a fb3d 1945 f63d
00000070: e8aa 7cbd b913 bc3d e999 c63d 19b9 9cbc
00000080: 5396 53ba f3da 16be 7a04 e93d 76fb 86bd
00000090: b235 fb3c 4a9c a4bd a491 353d 63bc 49bd
000000a0: ed05 3d3d 6622 153d fb86 3c3d 4470 5cbd
000000b0: 20c3 ef3b 653f 15be 9829 a33c 26a1 41bd
000000c0: ab73 e03d 89d0 c3bd 70ca 063d d91e 28be
000000d0: 8c19 583e d2e9 51be fea8 e13d ca0b 213e
000000e0: acc7 0dbe 2ff8 373e d557 ab3d 0c06 5abe
000000f0: 6646 efbd 15ed 43be 67fe 34be e8bd 75be
-0.017463611 0.07728049 0.19766042 0.07721055 -0.018370003 -0.05454536 -0.0024529048 -0.07893935
-0.08071491 0.00029789316 0.07492974 -0.17990024 0.14251827 -0.07257377 0.14964776 -0.13499145
-0.0019219854 0.026833015 0.08922135 -0.18489254 0.061800074 0.065237865 0.1427184 -0.09366371
0.03871321 -0.039064176 0.12264 0.12024898 -0.061686426 0.09183449 0.09697325 -0.01913123
-0.0008071411 -0.1473196 0.11377807 -0.06590931 0.030665252 -0.08037622 0.044328347 -0.049251925
0.04614823 0.036409758 0.046027165 -0.053818002 0.007316962 -0.14574964 0.019917294 -0.047272824
0.10959562 -0.09561259 0.032907903 -0.16418017 0.21103495 -0.20499352 0.11018561 0.15727153
-0.138457 0.17965768 0.08366362 -0.21291369 -0.11683349 -0.19133408 -0.17675172 -0.23998225

backbone.conv3.weight f4 [64, 64, 5]
00000000: f74f 79be db1b 203e a763 2c3d 7a2d 2e3e
00000010: fc83 ed3d a8c9 cf3d 547f 713e ce04 ad3d
00000020: cc89 0fbe 2ad4 2ebe 4362 10be 12f9 303e
00000030: 40e3 073e a177 0ebd 6b2b 52be 2d34 8ebe
00000040: 0018 053e a702 1bbe 8941 0dbd ac96 b6be
00000050: 779e 7ebe 9618 82be 0667 b5be 53a0 a93e
00000060: 8e75 e63d 65f6 2bbe b4a9 6fbe 8015 843d
00000070: 3f2b ed3c 0e18 95bd bbbe 3f3e 39c1 d43d
00000080: 44e9 a23d fe7d 063d 2687 233e 9a1c 11be
00000090: 41aa 1d3e bdeb bb3d bbd5 01bf 4656 e9be
000000a0: 9cde 7f3d be11 98bd 02cd 0bbc 1b97 e9bc
000000b0: 9d25 2bbe 8079 74bd 834f 95bd a8f8 9d3d
000000c0: 2f6d 56be 023c 563d 5f1b c0be 87ae cdbd
000000d0: 0701 abbd 1589 9ebd 8d5d 9abd 2919 48be
000000e0: 1f22 24be 2491 813c 74f8 113e 99fb aebd
000000f0: f321 93bd 2086 413d 3237 10bc bb11 3ebe
00000100: a067 22be 21d1 0f3e a9af 6f3d 089b 5e3e
00000110: 84a6 b0be e470 51be fd09 a73d f200 c23d
00000120: b9ff 4abd 5b4b a1bd b10e 7ebb f995 03be
00000130: abdc d33d f4c0 7d3d 9dd8 dabc 72b8 463d
00000140: f1d4 243e deac 81bd 941f 173e a871 a5bd
00000150: 5145 19be 98a8 2dbf 0969 04bf 421c 90be
00000160: 8df9 17bd 76b6 c2be f781 e4bd 5fe2 463e
00000170: 2d0b 0fbe 3568 b0be d1ac 23be 9294 873e
00000180: 9012 8c3c cacd 1abe 4332 673d 7ddb 113d
00000190: eb39 a9bc 5565 84be 9cbd acbd 1044 21be
000001a0: c024 c5bc b031 3ebe e532 093e 3559 1abe
000001b0: 260b 823e 6c68 71bd 41c3 60be bea8 afbe
000001c0: 52cb 5a3e bca5 983e bdc1 a2bd a87a 48bd
000001d0: f2fe 2e3e 32b9 43be e2f6 b83d e38a 9d3d
000001e0: 2fc7 723e f7b1 9c3d cfdd 023d 6abb 76be
000001f0: 315d eabe 349c 013e 07f3 243e 3354 4a3e
00000200: 8cf8 d1bd ed33 c4bc d430 323d 4089 4bbe
00000210: 59a7 cdbd d765 253e ccff 41be 4c10 84be
00000220: 7b4a 19be 6e10 15bc 9407 00bd c298 43be
00000230: fbb1 093e 0af3 543e 92e5 133e 00cc 7ebe
00000240: 1450 fcbc 101d 423d 0789 6abe 6d0e a4bd
00000250: b878 213e 87a4 48be fa16 423e e16a ce3e
00000260: 6b08 96bd bd13 673e 9d50 f93d 34bc 03bd
00000270: bc73 403d ecc9 8dbd a9b5 9ebc 83f2 7a3d
00000280: afee 563e f3bb 4ebd 4f39 b6be db41 92be
00000290: caf4 80be 5395 92bd 0450 3abe 8798 febb
000002a0: 3a0b b0bb 1674 2a3c 7a7a 7bbe 1f19 463d
000002b0: 782c a03e ad6a c53c 6c84 06bf 8ffb 233e
000002c0: d2cb f2bd c722 2ebd d00b 03be 4401 12be
000002d0: cff7 a2bc 5902 78bd 4da1 c1be 49fd 243b
000002e0: a6a5 0dbd 8db2 8d3e 1441 e53d f405 02be
000002f0: b41b c6be a311 27bf ebe5 28bf ea9f e1be
00000300: a089 0fbd 76ff 21bd ca15 533e fbdc e53d
00000310: 0469 bebe 02f5 c3be 0b99 2bbe f91e 03bf
00000320: 44bb d8be e048 30be fcae 26be e31e 02be
00000330: a52b 4e3e ceb6 ba3e 9ab2 f83d a405 88be
00000340: 8f7c 4aba b38e 323d 8edf 943d 39ef e33d
00000350: eb31 a63d da59 4cbd 2ddb 41be 3725 01bf
00000360: 0425 edbe 4bca 03be fe8f 013a b229 b1bc
00000370: 4dbf 16be c15d 383e f60c 5b3e e888 4dbe
00000380: a888 80be e8ee c43e d7af a73e fc74 bbbd
00000390: 56fa 493e 0b7c 453d 2963 1e3e 452a 39bd
000003a0: debe 233e fd1c 15bc d674 65be 628a 89be
000003b0: 88fd 83be 7e60 153e ad58 4a3d 4c45 103c
000003c0: 7feb 393e f5ef 05be 1907 dcbe 2526 2dbe
000003d0: 6393 34be 9c99 60bd 111a 0fbd 1d5a 9d3e
000003e0: 90fb d83d 8bd0 1f3e 7cde 8bbc 9285 ad3c
000003f0: 4456 46bd 92e3 413e e49e 38be 38ab 4ebe
-0.2434691 0.15635626 0.042087223 0.17009535 0.1159744 0.10145885 0.23583728 0.08448182
-0.14017409 -0.17073122 -0.14099984 0.17282513 0.13270283 -0.034782056 -0.20524375 -0.27774182
0.12997437 -0.1513773 -0.034486327 -0.3566183 -0.24865137 -0.25409383 -0.35430163 0.3313013
0.112528905 -0.16793211 -0.2340458 0.06449413 0.028951285 -0.07279979 0.18725102 0.10388417
0.07954648 0.032835 0.15969524 -0.14171067 0.15396978 0.09175823 -0.5071675 -0.45573634
0.062468156 -0.07425259 -0.008532764 -0.028514436 -0.16713567 -0.059686184 -0.07290556 0.07713443
-0.20940088 0.05230332 -0.37520882 -0.10043054 -0.08349805 -0.0774099 -0.07537375 -0.19540848
-0.16028641 0.015816279 0.14254934 -0.08544082 -0.0718421 0.047247052 -0.008802222 -0.18561451
-0.15859842 0.1404462 0.058517132 0.21738827 -0.3450204 -0.2045322 0.08156202 0.094728366
-0.049560282 -0.07875701 -0.003876608 -0.12850179 0.103448234 0.061951593 -0.026714617 0.048515745
0.16096856 -0.063318 0.1475814 -0.08078319 -0.14967848 -0.6783538 -0.5172277 -0.2814656
-0.037103225 -0.38029832 -0.11157601 0.19422291 -0.13969107 -0.34454504 -0.15983893 0.26480538
0.017098695 -0.15117565 0.056444418 0.03560971 -0.0206575 -0.2585856 -0.084346026 -0.1574862
-0.024065375 -0.18573642 0.13398321 -0.15073092 0.2539913 -0.058937475 -0.21949483 -0.34308428
0.21366623 0.29813945 -0.07947109 -0.0489451 0.17089441 -0.19113615 0.09031464 0.07692506
0.23708795 0.076511316 0.031949814 -0.2409493 -0.45774224 0.12657243 0.16108333 0.19758682
-0.10252485 -0.023950541 0.043503597 -0.19876575 -0.10041685 0.1615213 -0.18945235 -0.25793684
-0.14969818 -0.009098155 -0.031257227 -0.19101241 0.134468 0.20795837 0.14443043 -0.24882507
-0.030799903 0.047390997 -0.22903834 -0.08010564 0.15768707 -0.19594012 0.18954077 0.40315917
-0.07325824 0.22566123 0.12173579 -0.032161906 0.046985373 -0.06923279 -0.019373732 0.061266433
0.20989488 -0.05047221 -0.35590598 -0.2856587 -0.2518676 -0.071573876 -0.18194586 -0.0077696475
-0.005372432 0.010403654 -0.2455844 0.0483638 0.31283927 0.024098719 -0.5254581 0.1601393
-0.11855282 -0.042513635 -0.12797475 -0.14258295 -0.019893555 -0.060549114 -0.37818375 0.0025175384
-0.034581803 0.27675286 0.11194053 -0.12697583 -0.3869301 -0.65261286 -0.65975827 -0.44067317
-0.03504336 -0.039550267 0.2061378 0.11223789 -0.37189496 -0.38272864 -0.167576 -0.51219136
-0.42330372 -0.172153 -0.16277689 -0.12707095 0.20133837 0.36467594 0.121434405 -0.26566803
-0.0007724249 0.04359312 0.07269202 0.111296125 0.0811499 -0.049890377 -0.18931265 -0.5044741
-0.46317303 -0.12870137 0.0004942416 -0.021626327 -0.14721413 0.18004514 0.21391663 -0.20071757
-0.2510426 0.3846352 0.32751343 -0.091531724 0.19724402 0.048214 0.15467514 -0.045206327
0.15990779 -0.00910115 -0.2240785 -0.2686339 -0.25779366 0.1458759 0.049400974 0.008805584
0.18156241 -0.13079818 -0.42974165 -0.16909082 -0.17634349 -0.054833993 -0.03493697 0.30732813
0.10594857 0.15606897 -0.017073862 0.021181855 -0.048422113 0.18934467 -0.18029362 -0.20182502

backbone.conv3.bias f4 [64]
00000000: 5918 35be 1a77 3bbe c508 05be 0419 38be
00000010: e3cf 1d3e 72e4 973d 0c4c 03bd 23fa a83e
00000020: 4892 a1bd e195 a03d 3d07 e23c 26fe 36be
00000030: 1049 bd3b 0073 2e3d 8720 04bc 0a99 903d
00000040: f02d 38bd 730d f13d 2215 17be 487f 8e3e
00000050: 6455 f03d 02c9 39be fd36 12be 8532 883d
00000060: c047 153c 3b88 65be f095 cfbd d845 c0bd
00000070: 90f9 70be 9b58 603e 22bd 853b c781 4b3e
00000080: 639d 073d 38f7 4cbe 112c 683c 392b 863d
00000090: 73e5 9a3d 2370 96bd f1cd 813d affe 1cbe
000000a0: 1493 42be 69ce e0bd 2274 df3d e8d9 c4bd
000000b0: 4443 13bd dcb2 e2bd b5bb 2b3e ec87 8abd
000000c0: d8ad 1d39 28a0 1e3e c452 3c3d 9dec 86bd
000000d0: 28b0 b8be c2ff 9e3d 79bb c4bd 359e e2bd
000000e0: 2455 933d 90b4 8ebb 70be 883e 4cf2 8b3d
000000f0: 2f0f 27bd c996 d6be a26a 41be efb0 fc3d
-0.17685069 -0.18307152 -0.12991627 -0.17978293 0.15411334 0.07416619 -0.032054946 0.3300334
-0.07889229 0.07841087 0.027591342 -0.17870387 0.005776532 0.04259014 -0.008064396 0.0706044
-0.044965684 0.11770143 -0.14754155 0.27831483 0.11735037 -0.18143085 -0.14278789 0.06650261
0.009111345 -0.22415249 -0.1013602 -0.09388322 -0.235327 0.219088 0.0040813843 0.19873725
0.03310908 -0.20016181 0.0141706625 0.06551213 0.07563295 -0.07345607 0.06338108 -0.15331529
-0.19001418 -0.109768696 0.109108225 -0.09611875 -0.03595282 -0.11069271 0.16770823 -0.06764206
0.00015037449 0.15490782 0.04597737 -0.06588099 -0.36071897 0.07763626 -0.0960607 -0.11065332
0.07193974 -0.004355021 0.26707792 0.06833324 -0.040785965 -0.41911915 -0.18888333 0.12338435

backbone.conv4.weight f4 [128, 64, 5]
00000000: 4f7f 803e 1ad1 543e 6e9b 703d 2259 d33d
00000010: 9386 83be 5357 e5bd 652c 723d 121d adbd
00000020: c17b 16bb 4f8d 10bd ca11 14be c0e6 c3be
00000030: 3c64 b8be fb89 93be d59e 18bd c772 883d
00000040: 1367 9e3b f917 683d 9f65 61bd eb61 a5be
00000050: f748 84be 094a 12bd 2c90 26be 0042 e8bd
00000060: 119e 95bd 75e6 9f3e 980c 16be b6e8 3cbe
00000070: ed39 45bd 857f eebc d5b4 393c fb94 45ba
00000080: abcf 073e a6e9 6a3e a9c2 9ebd a54a ab3d
00000090: f0be 143e 7506 e53a fe7a 41be b33d e4bd
000000a0: 57e3 273e 5c31 99bc f6c7 8bbd a362 52be
000000b0: 594e c53d b77e 713b 0981 a83d 073e 8f3d
000000c0: e580 f1bc 76ee d33d 6ebf 253e 2b14 1e3e
000000d0: f93f 833d 2e9b 1ebe e5bc f23b 8201 093e
000000e0: 4747 493d c04e 1cbe ab1e 793b 7112 babd
000000f0: eee6 8c3d 6056 763d 88fb 1a3d cf12 53be
00000100: 9054 d53d f25d a33d e30d 17be 006e 2f3c
00000110: e08c e33c a85d bb3d 4b99 913d 05e4 81be
00000120: 7302 723e 1598 3b3e c489 27be aa7d 843e
00000130: 4b9c e4bd a923 3d3c 1155 213e 27a9 30be
00000140: 7ed4 7dbe 7970 aebe e1b3 85be 21c6 82be
00000150: 92cb 80be c279 293e bab7 60be 370d 5dbe
00000160: c2f3 e43c 0096 8b3e daf2 62be 4311 00be
00000170: 845c 40bd 90f4 99bd 6027 95bd ea10 84bd
00000180: 8413 23bd 2b4a 40be 077b 243e 414a c3bc
00000190: 4b12 2d3b 359c 3ebe 8641 8bbd 8ad4 c03d
000001a0: 019f b03d c577 47bc 4375 36be d6d1 93bd
000001b0: 1e88 89be 6ea6 7bbe bb2e 893e 7d60 77be
000001c0: b02f 38be be8c aabd 89c9 97be 158b 34be
000001d0: 58f4 b63d ee72 ccbd 5b6b 5abe 27f0 703d
000001e0: a065 5cbc 48c6 96bd 7771 15be c0c9 233e
000001f0: d1f8 62be eafb 093e aeca 6ebe ad0e 9fbe
00000200: 45ec 943e bd42 bb3d ecd1 9dbd f8de c6be
00000210: 0538 b3be de23 fd3d c067 6b3c e320 23be
00000220: 9a00 d93d 8f68 dc3d 825a 65be 78bf a83c
00000230: 098c 91bd 4f8f 5c3d 8cac e3bd fc54 8abe
00000240: d46b 76bc 198c 863e 6328 f83d 029d 7fbe
00000250: 33da 78be 8e27 cdbd f9fa 9d3e a986 34be
00000260: b8e1 94bc f5fe dc3d 6b47 1abe ab62 2ebe
00000270: 48e6 16bd f11a 4e3d 4e29 823d 677e 163e
00000280: f3ed 2c3e 00ca f63c cb2a dfbe 127f 3ebe
00000290: 8775 99bc 4a3d 98bd b4c2 c03d f305 1ebe
000002a0: adbe a5bd 64c8 303e ac47 c33c ceb1 adbd
000002b0: 4184 293d 0628 733d b36d ce3d aed5 793b
000002c0: 73b0 743c c102 47bd e03f 30be 028c 27be
000002d0: e31f 03be 8a2e b2bd 8c8c 8f3d b1e6 123e
000002e0: 6429 b6bd eb68 5cbe 8296 ddbd 5029 d2be
000002f0: 7a82 32be 34c6 86be 12e1 35be e6c4 82be
00000300: 4133 f4bd 2190 50be c323 dc3d 38ba 453e
00000310: 1823 fe3c d214 b2be 7f87 7ebe 6652 c83a
00000320: af5e d6bd d7eb 95bd 1989 1abd ba81 b83d
00000330: 1083 9f3d 9767 2b3e 37b3 db3c 0b07 5d3d
00000340: 0b91 86bd d3f5 20be 988a 873e 0d93 903e
00000350: 1eb7 59bd 631d 2abd 7edf acbe 55bb e53d
00000360: ec4e 68be e1e7 b4be 2667 243c a8a3 d5bd
00000370: d3dd d8bc 88c0 95bc 95bb d3bd 063d 893d
00000380: a714 e6bb 2862 2b3e 868f ed3d 236b b03d
00000390: 7dbd b6bd 2319 843d b2df 71bd 1c86 14be
000003a0: e398 a0bd 9544 c33d c3b8 623e f7a3 1d3e
000003b0: 72df 3abd 1686 9dbe 73ff 093e 9c55 2b3e
000003c0: 982e 793e 3a72 563d e9a1 ea3c 4332 793c
000003d0: 3c72 403c 0672 093e 68e9 f43d bd1c 9ebd
000003e0: a26c 4c3e 7143 5d3d d548 64be f241 2ebe
000003f0: 69fe 88be d7f4 c03b 8b17 6e3e eb9c 3abe
0.2509713 0.20782891 0.05874198 0.10319735 -0.2568861 -0.111982964 0.05912437 -0.0845281
-0.0022961947 -0.035291012 -0.14459911 -0.38261986 -0.36013973 -0.28816208 -0.03726085 0.06662517
0.0048340647 0.056663487 -0.055028554 -0.32301268 -0.25836918 -0.035715137 -0.16265935 -0.113407135
-0.073055394 0.31230512 -0.14653242 -0.18448147 -0.048150945 -0.02911354 0.011334618 -0.00075371534
0.13262813 0.22940692 -0.07751972 0.08363847 0.14525962 0.0017473238 -0.18894574 -0.11144581
0.16395317 -0.018700294 -0.06825249 -0.2054544 0.09634084 0.003684921 0.082277365 0.06994253
-0.029480407 0.10348217 0.16186306 0.15437381 0.06408686 -0.15488884 0.007407772 0.13379481
0.04914024 -0.15264416 0.0038012664 -0.09085549 0.06879984 0.060140967 0.037837535 -0.20612644
0.1041652 0.07976903 -0.14751391 0.010707378 0.027777135 0.09148723 0.071093164 -0.25369278
0.23633747 0.18319733 -0.16361147 0.25877124 -0.11162623 0.011544147 0.15755107 -0.17252026
-0.2478809 -0.34070185 -0.261138 -0.25541785 -0.25155312 0.16550353 -0.21945086 -0.21587072
0.027948264 0.27262878 -0.22162953 -0.12506585 -0.04696323 -0.0751735 -0.07282901 -0.064485386
-0.039813533 -0.18778293 0.16062556 -0.023839118 0.0026408609 -0.18614276 -0.06799607 0.094155386
0.086240776 -0.012174551 -0.1781817 -0.072177574 -0.26861662 -0.24575207 0.26793465 -0.24157901
-0.17986941 -0.08327626 -0.29645947 -0.1763118 0.089333236 -0.099828586 -0.21330015 0.058822777
-0.013451964 -0.07362038 -0.14594065 0.1599493 -0.22165228 0.13475004 -0.23319504 -0.31065884
0.2908651 0.09143589 -0.07706055 -0.38841987 -0.35003677 0.12360357 0.014367998 -0.15930514
0.10595818 0.107621305 -0.22397807 0.020599112 -0.07106788 0.053847607 -0.11116895 -0.27017963
-0.015040357 0.2627876 0.12117078 -0.24962237 -0.24301986 -0.1001731 0.3085554 -0.17629494
-0.018174037 0.10790817 -0.15066306 -0.17029826 -0.036840707 0.050318662 0.063555345 0.14696656
0.16887645 0.030125618 -0.43587336 -0.18603161 -0.0187328 -0.07433565 0.09412137 -0.15431957
-0.08093009 0.17263943 0.023837887 -0.08481179 0.041385893 0.05936434 0.10079517 0.0038121748
0.014934647 -0.04858661 -0.17211866 -0.16362002 -0.12805133 -0.08700283 0.07009229 0.14345814
-0.088946134 -0.21524398 -0.10819723 -0.41047144 -0.17432585 -0.26323092 -0.17761639 -0.25540847
-0.119238384 -0.20367481 0.107490085 0.19309318 0.031022593 -0.3478151 -0.24856375 0.0015283346
-0.10467278 -0.073203735 -0.037728403 0.090091184 0.0778867 0.16738735 0.026818855 0.053961795
-0.065706335 -0.15718774 0.26472926 0.2823719 -0.05315315 -0.04153193 -0.3376426 0.112173714
-0.22686356 -0.3533316 0.010034358 -0.104316056 -0.026472962 -0.018280283 -0.10338513 0.067010924
-0.007021505 0.16736662 0.115996405 0.08614185 -0.08922861 0.06450107 -0.059051223 -0.14504284
-0.07841661 0.09534565 0.22140794 0.15394579 -0.04562325 -0.30766362 0.13476352 0.16731876
0.2433418 0.05235503 0.028641658 0.015209737 0.011745986 0.13422403 0.11958581 -0.07720325
0.19963315 0.054019395 -0.22293408 -0.17017344 -0.267566 0.005888562 0.23251168 -0.18223922

backbone.conv4.bias f4 [128]
00000000: c384 4f3e 100f 2fbe b8da 583a 477e c03e
00000010: 1bb7 6fbe af56 bdbd b3ac 97be bc57 32be
00000020: cc96 1ebe 07b4 3f3e aa40 bfbd b4e0 91be
00000030: ba54 b7bd e4e8 4f3e 0706 dfbd 3a49 573e
00000040: 9b31 5abe db5d fa3d 5e48 d23e 3da5 563d
00000050: 62a6 02be 45d8 c8bd cd92 6a3c 7e73 53be
00000060: d2c1 07be 0427 7c3e 7da3 e6bd e7ee 923e
00000070: 605f d8bd c698 953e f4b2 843e 4b9e 27be
00000080: a659 8b3c 3206 8a3c 4903 c8bd 8ffd 253e
00000090: 8e85 0dbe 465f 983a 4271 35be 6f2d 1f3e
000000a0: 1c86 f9bd 3ba7 cc3e 2492 37be 3025 623e
000000b0: 1735 943e 38b4 7b3d bf36 80be 6753 5f3e
000000c0: 8c80 a5bd aaa1 99bd b4ad 6ebe fb66 9a3e
000000d0: 6e40 70be 3ad2 93bd 9c0a 473d 7f9b debd
000000e0: 30ae b1bd 21b0 65bd a9ac 76be 9c8d 8dbe
000000f0: d62c 52be 7c52 f8bd 39a4 e93d 5586 d8bd
00000100: 24c5 81bd 77ff efbe e38d a53d bbbc d3bd
00000110: 08fe f0bb cb0f 23be d0f3 293e c707 35bd
00000120: 10ae fdbd e187 93be 6f9e 08be 85c3 00be
00000130: 75e5 b93e 35ce 58be d6b2 0dbe ced9 f2ba
00000140: a261 e93e 9340 783d a6ea 833d e5a4 e3be
00000150: 2cbd 393e bfeb 9a3d a2a1 6aba f5de 80be
00000160: b10e c6bd 8ba9 103d 13cd 8bbb a163 17be
00000170: dc25 0ebe 625a b8bd 1a71 78bd 2cbe 1cbe
00000180: fc3c 6ebe 3034 963c 0c5b e1bc 7689 9cbe
00000190: 8a0c 0abe ce4e 60be ee2d 7ebe 73c1 a8be
000001a0: b280 413e 53ce d0bd beae 2ebb cf2c 55be
000001b0: 8912 9c3d 5d96 89bd 96c0 5bbe 7028 ce3d
000001c0: 7164 09be 46b3 613d f3cf c8bd 925b 18be
000001d0: ae91 51bc e13f 6fbe 5856 50be f776 9a3e
000001e0: 2174 9d3e b705 b1be 5c9d ba3c 440f 3f3e
000001f0: 6d75 943e bdf2 213e 79a9 b83e 0c1d a83e
0.20265488 -0.1709559 0.0008272338 0.37596342 -0.23409693 -0.09245049 -0.29623947 -0.1741628
-0.15487212 0.18721019 -0.093385056 -0.28491747 -0.08951707 0.20303684 -0.108898215 0.21024027
-0.21307985 0.12224933 0.41070837 0.052403677 -0.12758783 -0.09806875 0.014317227 -0.20649526
-0.1325753 0.24624258 -0.11261652 0.28697893 -0.10565066 0.2921812 0.2591778 -0.16368978
0.017010521 0.016848657 -0.097662516 0.16210006 -0.13820478 0.0011625073 -0.17718986 0.15544675
-0.121837825 0.39971337 -0.17926842 0.22084498 0.28946754 0.061451167 -0.25041768 0.21809159
-0.08081159 -0.07501538 -0.2330845 0.30156693 -0.23462078 -0.07217832 0.048594102 -0.10869502
-0.08675802 -0.056076173 -0.24089302 -0.27647102 -0.20524916 -0.12125108 0.11408276 -0.10572497
-0.0633643 -0.46874592 0.08083703 -0.10338732 -0.0073545016 -0.15923993 0.16596913 -0.04419687
-0.123867154 -0.28814605 -0.13341688 -0.12574585 0.36307874 -0.21172412 -0.13837752 -0.0018528046
0.455823 0.060608458 0.0644124 -0.44461742 0.1813857 0.07564496 -0.0008950477 -0.25170103
-0.09670771 0.03531794 -0.00426639 -0.14784099 -0.1388163 -0.09001614 -0.060654737 -0.1530692
-0.23265451 0.018335432 -0.027509235 -0.30573624 -0.13481346 -0.21905062 -0.24822208 -0.3296009
0.1889675 -0.10195603 -0.0026654447 -0.20817874 0.07620723 -0.06718133 -0.21460184 0.100663066
-0.13417222 0.05510261 -0.09805288 -0.14878681 -0.01279108 -0.23364212 -0.20345438 0.30168888
0.30752662 -0.34574673 0.022780113 0.18658167 0.2899584 0.15815254 0.36066797 0.3283466

backbone.conv5.weight f4 [128, 128, 5]
00000000: 4e1a 58bd a2a6 853c c354 883d 3483 f93d
00000010: 3cf0 8b3d ac62 c3be af1d 933d 9c39 58be
00000020: 8f81 40be 84b8 1cbe fbcf a03e 6a34 dc3e
00000030: 21bc 21be 18a2 44be 8535 26bc 46cb c8bc
00000040: f212 8f3d dc39 fc3a 93ce 323e 2c89 323e
00000050: 54f3 fcbc 45ed 68bd 285a 8d3d f737 9fbe
00000060: d570 afbd d214 143d db95 52be eb9c febd
00000070: 9d52 85bd 832a f03d 47dd 1a3e fded f6bd
00000080: 5144 d0bd 8e8a 9bbc c51a 3a3d 5db8 96be
00000090: 5648 88be f008 8d3d 99f4 5e3d 341d 9b3e
000000a0: 5935 e8bd 6d80 2dbd 1d03 74be 0d87 35be
000000b0: ae4a a63c 9664 8bbd 86b3 e4bd 3fbb 6e3d
000000c0: 45e9 523d 7052 fd3d be30 3f3e 8f1e f23d
000000d0: 55af d93e a4d9 7abe 7e89 eb3d 272f 2dbc
000000e0: 8097 8dbd 516d f0bd bab8 a23e 2f6a c5bd
000000f0: effb 14bc 00b0 f6bc ab14 18bd 5171 17be
00000100: 2984 66be e3c1 ba3d dcd0 6f3d d6f6 c93d
00000110: 9c64 34be 5fb0 6fbd 1535 863e 8540 d5bd
00000120: 30a9 05bd f6a2 a33c 276d 8c3d 6b07 b2bd
00000130: d5a6 dd3d 23ac 0cbe fc64 24be e29e 8fbd
00000140: a87b 04be 86a8 093e b726 b0bd bc78 1fbe
00000150: 4cda 6cbe a11d 403e c53a 483b b429 ba3d
00000160: 2434 6abe 3878 38be ba6b 14bd 1172 913d
00000170: 9905 313e 3c3d 373e 22bd 4a3e 4274 203d
00000180: b0c6 763e 3146 51bc 9d9b d6bd 2110 41bd
00000190: 99fd bebd 701d 1cbe b4b6 94bd 8a6c e9ba
000001a0: b08f 57bd 0a3f 3abe 5b16 aebe b5bb bebd
000001b0: ca7e a1bd 8a47 49be aee5 89be a4c7 1abe
000001c0: c59e 84bd b198 26be 5eec 03be 886e dd3d
000001d0: e7ad ca3c 6319 68be 454c 83be 9e59 43be
000001e0: 6ced a0bd d70d c8bd f738 013d b1a9 73bc
000001f0: fe8c 943c 5eb0 5abe 01dc 02be fd5c 4bbd
00000200: 2669 12bd 3b2d d33e cb9d 2c3e 7ef7 703d
00000210: e0dd 8fbc 97c2 513e b99f 9e3e 20e9 5d3e
00000220: 9f5c 913d 3211 e13d 3e90 16be 6c1a e1ba
00000230: 768c debe f7a1 3fbe 3ae7 acbd cd53 2bbe
00000240: 9b31 7b3e 7030 f33b b676 55bd b221 dc3d
00000250: c1f9 453e 8f96 dc3d 33d1 c0bd 5fc1 f33d
00000260: 456e 073e 58fe 21be e81d 2abe cbc8 9abe
00000270: e98f 80be 9fb3 9dbd 94b4 b1bd df58 513e
00000280: aa80 65bc 9602 3b3d 236d 1a3d cf1d 86bc
00000290: b0b3 d23d a3a3 eabd 4cef 06be 692f 55bd
000002a0: 8685 07be 09f3 493d 631f acbd 3c45 ab3b
000002b0: 06c8 dbbe 9058 e03d 9b9a fabd 8936 083e
000002c0: 9562 e83d 4098 c8bd f696 10be ceb9 0c3d
000002d0: d51c f43c 0fd8 053e 679c 27bd 880b 173e
000002e0: 7ef9 39bd 7340 bbbe 9192 debe b5c0 ab3d
000002f0: 3ae4 8d3d f096 843d 0682 123e a73f 79bd
00000300: 9c01 05be 8d73 cabd 73c2 5abe 7af0 dfbd
00000310: eedd 30be ea64 a13d 849d cd3d caf5 b83e
00000320: 923c b73c d762 be3d 6ecd 1b3e 7def 82be
00000330: 7a52 553d 228e e63d 6686 e43d cf65 873d
00000340: 5c93 f43d c442 023e a01a 25be d0db 9dbe
00000350: a7bb 80bd 8c72 33be 9b69 adbe e73c b13d
00000360: 0e69 94bd 6dc1 82bd eabd 9cbd 7ce9 a2be
00000370: 4843 c4bc db1a 943d 7a3e 7d3d b0b0 383b
00000380: 55be c83d e7bb 55bd ddb3 47bd 7ace 5b3d
00000390: a012 76bd 2231 613d 46e5 09bd 5a15 073c
000003a0: 30e2 8cbe 2097 c4be 599c 53be ea9b b83d
000003b0: 22f2 b53d 3af6 e0bd a309 1a3e 905d 8fbb
000003c0: 0aaa c73d 08bc 87bd c8c0 34be 6ed7 163e
000003d0: 1674 e13d b385 c63d 5779 da3d a12e 013e
000003e0: 9819 f83d 2e28 303e a6bb 33be 574c c3bd
000003f0: e231 91bd b229 83bd b8bb e53d d081 a33c
-0.05275946 0.016314808 0.06656792 0.12183228 0.068329304 -0.38161218 0.07183396 -0.21115726
-0.18799423 -0.15304762 0.31408677 0.4300874 -0.15794422 -0.19202459 -0.010144596 -0.02451099
0.069860354 0.0019243318 0.17461614 0.1743514 -0.030877747 -0.056866903 0.069019616 -0.31097385
-0.08566443 0.03615267 -0.20564978 -0.124322735 -0.06509898 0.117268585 0.15123473 -0.120571114
-0.1016928 -0.018986966 0.045435686 -0.29437533 -0.26617688 0.0688647 0.054432485 0.30295718
-0.113383 -0.042358804 -0.23829313 -0.17727299 0.020299282 -0.068062946 -0.11167054 0.05828404
0.051491994 0.12369239 0.18670937 0.11822235 0.4251658 -0.24497086 0.11500834 -0.010570324
-0.06913662 -0.117396004 0.3178156 -0.096393935 -0.009093269 -0.03011322 -0.037129086 -0.1478932
-0.22511353 0.09119012 0.058548793 0.09861533 -0.17616504 -0.05851781 0.26212373 -0.10412697
-0.032632053 0.019975167 0.06856757 -0.08692821 0.10822836 -0.1373754 -0.16054147 -0.07012726
-0.12937796 0.13443193 -0.08601134 -0.155734 -0.23130149 0.18761303 0.0030552607 0.090899855
-0.22871453 -0.1801461 -0.03623555 0.071018346 0.17287292 0.17894453 0.19798711 0.039173372
0.24099231 -0.012773083 -0.104789 -0.047134522 -0.09325714 -0.15245605 -0.0726141 -0.0017808836
-0.052627265 -0.1818811 -0.3400143 -0.09313146 -0.07885511 -0.19656196 -0.26933044 -0.1511522
-0.064755954 -0.16269185 -0.12883136 0.10812098 0.024741126 -0.22665934 -0.25644127 -0.19077155
-0.07857785 -0.09768265 0.031548467 -0.014872001 0.018133637 -0.21356341 -0.12779237 -0.049649227
-0.03574481 0.41245446 0.16857068 0.058829777 -0.017561853 0.20484386 0.30981234 0.21670961
0.07097744 0.10989608 -0.14703462 -0.0017174012 -0.43466538 -0.18714128 -0.084425405 -0.16731186
0.24530642 0.0074215457 -0.052115165 0.10748614 0.19333555 0.10770904 -0.094149016 0.11902117
0.13225658 -0.1581968 -0.16612971 -0.30231318 -0.25109795 -0.07700276 -0.08677021 0.20444058
-0.014007727 0.045656763 0.037701737 -0.016371636 0.10288179 -0.114569925 -0.13177222 -0.052047167
-0.13234529 0.049304042 -0.08404424 0.0052267592 -0.42926043 0.10954392 -0.1223652 0.13302054
0.11346928 -0.097946644 -0.14120087 0.034356885 0.029798904 0.13070701 -0.04092064 0.14750493
-0.04540395 -0.36572608 -0.43471196 0.08386365 0.069282964 0.064741015 0.14307413 -0.06085172
-0.12988895 -0.09885321 -0.21363239 -0.10934539 -0.1727216 0.07880576 0.10039809 0.36125022
0.02236775 0.09296196 0.15215084 -0.2557334 0.05208061 0.112575784 0.11158447 0.06611215
0.11942169 0.12720782 -0.16123438 -0.30831766 -0.06285792 -0.17524165 -0.33869633 0.08654194
-0.072466 -0.06384549 -0.07653411 -0.3181876 -0.023957863 0.07231685 0.06182716 0.0028181486
0.09801928 -0.05218115 -0.048755515 0.05366371 -0.060076356 0.054978497 -0.033665918 0.008244837
-0.27516317 -0.3839655 -0.2066511 0.09014113 0.08884074 -0.10984464 0.15042739 -0.004375167
0.09749229 -0.06627661 -0.17651665 0.14730617 0.1100847 0.0969347 0.10667675 0.12615444
0.121142566 0.17202827 -0.17552051 -0.09536045 -0.070895925 -0.06404437 0.11217445 0.01995936

backbone.conv5.bias f4 [128]
00000000: e82d 943e 9e57 cb3c 1252 303f ab43 543e
00000010: 0387 843e ef0b 393e 1e4e 183e a653 e9bd
00000020: c146 363e f322 f9bd 5cb7 033c 3883 a2bd
00000030: 975f 34be bcbf 8a3e 9e04 8abe 67d1 bebe
00000040: b8f4 5a3d 767f 17bd 61a3 c6bd 5395 5f3d
00000050: 7ca8 4dbe edaf 9ebd c941 63be 9cad bfbd
00000060: bf4e 6bbe 836b 203e eb69 c9bd 8599 683e
00000070: d45e b23d 418c e33d 0d19 0abe 2b91 e03c
00000080: 66cc 46be 4a6f 93bd f5df c1bd 35d7 ff3e
00000090: eda8 7bbe 5c2d d2bc 7707 4a3e 9fb6 22bc
000000a0: 0ef8 203e e9c8 2bbe 96c8 343d 1962 2b3e
000000b0: 8d4f da3d 23dd 96be d6b3 48bd 00bb a9bd
000000c0: 6b9a 63bd 4a15 15be 3131 83bd a229 5ebe
000000d0: 1d91 d6be d5b1 883e fd11 0e3e cd8d 88be
000000e0: 964e 123b 2855 53be 90d6 dbbd 086b 6a3d
000000f0: a456 bb3e ac94 34be e0bd b5bd 9a0d d6be
00000100: ddf4 44be 8852 913e 2a3e 40bd 6b86 e13d
00000110: 8d0f d2bd c3ba 313e 851b 8f3c 8f89 753e
00000120: 3d7e b8bc 81ce 083f fe04 633e 6678 73be
00000130: 427e a8be da25 7a3e 8c05 d1bb 3a47 afbd
00000140: d4ad 66be 3ab8 d9bd 4d57 91bb 039b 5a3d
00000150: 2e49 273e 3ff3 81be a6d7 7ebe 2b3c 343e
00000160: de04 8bbc 7721 fabd 2a11 27be edee 76be
00000170: 605b d33e 16c9 d0bd fadb 4b3e 38a7 9b3d
00000180: f5d8 293e 778a 01be f44a dcbd e87d c23d
00000190: fd32 033d 97c2 a3bd 1d1b d43b e1b7 c9bc
000001a0: 5a4f d33e 67a1 ed3c 8123 b0be 71ae 06be
000001b0: bfc6 9a3e 78a0 d33d 81e7 0fbe a323 27be
000001c0: 1321 d73a 6081 b73e b307 eb3e 24c2 e7bd
000001d0: 9662 bb3d cf30 f9bd ec16 8b3e 8241 66be
000001e0: 23b9 bdbc e7c1 b23e 6db5 9d3e 8326 4dbe
000001f0: 5ccf 8fbc 782e 373e 5c95 aebd b81a babd
0.28941274 0.024822053 0.6887523 0.20728938 0.25884256 0.18070959 0.1487355 -0.11392908
0.17800428 -0.12164869 0.008039322 -0.07935184 -0.1761459 0.27099407 -0.26956648 -0.37269136
0.05345604 -0.03698679 -0.09699131 0.054585766 -0.20083803 -0.07748399 -0.22193064 -0.09359285
-0.22979258 0.15666012 -0.098346554 0.22714813 0.08709493 0.11110736 -0.13486119 0.027412971
-0.1941391 -0.07198961 -0.094665445 0.49968877 -0.24576159 -0.025656395 0.1972941 -0.009931236
0.15719625 -0.1677586 0.044136606 0.1673664 0.10659704 -0.2946559 -0.04899963 -0.082876205
-0.055567186 -0.14558902 -0.06405867 -0.21695569 -0.41907588 0.26698175 0.1387405 -0.26670685
0.0022324673 -0.20637953 -0.10734284 0.05723098 0.3658954 -0.17634839 -0.088741064 -0.41807252
-0.19234033 0.2838328 -0.046934284 0.11011966 -0.10256872 0.173564 0.017469177 0.23978256
-0.022521133 0.534401 0.22169873 -0.23776397 -0.32908827 0.24428502 -0.006378835 -0.08558507
-0.22527248 -0.106308416 -0.004435456 0.053370487 0.1633651 -0.25380895 -0.24886951 0.17601077
-0.016970094 -0.12213414 -0.16315141 -0.2411458 0.4128065 -0.10194604 0.19908133 0.07600254
0.16586669 -0.12650476 -0.10756484 0.09496671 0.032031048 -0.079960994 0.0064729587 -0.024623813
0.41271478 0.029007627 -0.34402087 -0.13152482 0.30229756 0.10333341 -0.14053155 -0.16322188
0.0016413055 0.35840893 0.45904312 -0.11316326 0.09149663 -0.121675126 0.27165926 -0.22485927
-0.02315957 0.3491356 0.3080248 -0.20034222 -0.017554931 0.1788882 -0.08524582 -0.090871274
